mnist-feedforward.pth (torch, 103515 bytes, 4 tensors)

linear1.weight f4 [32, 784]
0	0xbcf1a6b8	-0.029498443
1	0x3c8b1188	0.016976133
2	0x3ba51148	0.0050374605
3	0xbcc51f1e	-0.02406269
4	0xbc90bf4a	-0.017669339
5	0x3cf3d6fe	0.029765602
6	0x3cdce926	0.026966643
7	0x3d0e224f	0.034700688
8	0xbb381f50	-0.0028094836
9	0x3cee9a02	0.029126171
10	0x3c74ef80	0.014949679
11	0xbd0785bc	-0.033086523
12	0xbca2709d	-0.019829089
13	0x3cd31020	0.025764525
14	0xbc8ee5ae	-0.017443504
15	0xbcd849be	-0.02640235
16	0x3d08501f	0.033279534
17	0x3c9a20dc	0.018814497
18	0x3cb37536	0.021906476
19	0x3c7ba1e8	0.015358426
20	0x3bd1af30	0.006399058
21	0xbc8f60c5	-0.017502198
22	0x3ca975a6	0.020685982
23	0xbbae0de4	-0.0053117145
24	0x3c1097fc	0.008825298
25	0xbc800fd3	-0.015632546
26	0xbbf23914	-0.007392058
27	0xbc6a91a6	-0.014316952
28	0xbb8ac488	-0.004234854
29	0x3d0f8dcb	0.035047334
30	0x3cfa8a16	0.030583423
31	0xbc943f3e	-0.018096562
32	0x3cfa323e	0.030541535
33	0xbd08caf5	-0.03339668
34	0xbcf37d88	-0.029722944
35	0x3cf7feba	0.03027283
36	0xbbff7d46	-0.007796916
37	0x3c43d7d6	0.011953315
38	0xbd0c9ace	-0.03432732
39	0x3ca14cc5	0.019689927
40	0xbac7ab02	-0.0015233459
41	0xbcbd04ae	-0.02307352
42	0x3c3908c3	0.011293593
43	0xbd0115b6	-0.031514846
44	0xbcd896f6	-0.026439171
45	0x3cac53db	0.02103608
46	0xbbcca561	-0.0062453006
47	0x3c438059	0.011932456
48	0x3d06fbca	0.03295497
49	0x3d0052fa	0.031329133
50	0x3c94f830	0.018184751
51	0x3c446af8	0.011988394
52	0x3c8d9344	0.017282136
53	0x3bc8f468	0.006132651
54	0x3b7c1480	0.0038464367
55	0x3cd5268e	0.02601936
56	0x3d00eb1d	0.03147422
57	0x3bdac808	0.0066766776
58	0xbbfe63de	-0.00776337
59	0x3ce6ef42	0.028190259
60	0xbcabf1b6	-0.02098928
61	0x3ca8af3a	0.020591367
62	0xbc037a0b	-0.008024703
63	0x3ce2cd4b	0.027685782
64	0x3cf75f7e	0.030196901
65	0xbc6626c9	-0.014047333
66	0xbd161d98	-0.036649317
67	0x3ca07b83	0.019590145
68	0xbc99e61d	-0.018786484
69	0xbbef2831	-0.0072984924
70	0xbd19236a	-0.03738729
71	0x3cc368ea	0.023853738
72	0xbcb39251	-0.021920355
73	0xbcf238ef	-0.029568164
74	0xbc0ae746	-0.008477991
75	0xbbcbba71	-0.006217294
76	0xbc0ed01c	-0.008716609
77	0xbbdba20b	-0.0067026666
78	0x3ca62784	0.020282514
79	0x3c2ac811	0.010423676
80	0xbce19679	-0.027537571
81	0x3b90d485	0.0044198656
82	0xbd06e3b4	-0.032932
83	0xbce9d92e	-0.028545942
84	0xbcd82738	-0.026385888
85	0xbd0fb81b	-0.035087686
86	0x3ca08f71	0.019599648
87	0xbd03f842	-0.03221918
88	0xbc0aa9c5	-0.008463328
89	0x3cc424d4	0.023943342
90	0xbc95c279	-0.018281208
91	0x3aa3fa24	0.0012510461
92	0xbc3ca0a2	-0.011512907
93	0xbd39b6f8	-0.04534051
94	0xbca5c17c	-0.020233862
95	0xbcefdd9c	-0.029280476
96	0xbd9c543a	-0.076332524
97	0xbd38222f	-0.044954475
98	0xbb89baac	-0.004203161
99	0xbd49e6a5	-0.049292225
100	0xbd95f77a	-0.07322593
101	0xbccc358e	-0.02492788
102	0xbd016920	-0.031594396
103	0x3c9a4179	0.018830048
104	0xbce6d525	-0.028177807
105	0x3bdcbfde	0.0067367395
106	0x3ce9429c	0.028474145
107	0x3d690425	0.05688872
108	0x3d2ed543	0.04268385
109	0xbcc9943d	-0.024606818
110	0x3c27dc4b	0.010245393
111	0xbcceac1a	-0.025228549
112	0x3cbed738	0.023295984
113	0xbca8fa9e	-0.020627316
114	0x3b1c5304	0.0023853192
115	0xbc88c482	-0.016695265
116	0x39357456	0.00017304844
117	0xbd8ea3ac	-0.06964812
118	0xbd7e1ec9	-0.062041078
119	0xbdbe327b	-0.09286972
120	0xbd8e7cc7	-0.06957393
121	0xbdbdabdd	-0.09261296
122	0xbd48eac0	-0.049052
123	0x3d7c64d6	0.061619602
124	0x3d97a41f	0.074043505
125	0x3daff040	0.08590746
126	0x3e048b25	0.12943704
127	0x3dea70b4	0.11447278
128	0x3dc6b051	0.097015984
129	0xbd330ae4	-0.043711558
130	0xbd9c6c15	-0.076378025
131	0xbc1a7a1f	-0.00942853
132	0xbd45232a	-0.04812924
133	0xbd316630	-0.043310344
134	0xbc1c6dc4	-0.009547655
135	0x3d2bca14	0.041940764
136	0x3da02ca3	0.07821014
137	0xbc2c3254	-0.010510046
138	0x3cefcf78	0.029273733
139	0xbcb1a54a	-0.021685261
140	0xbc0eb338	-0.008709721
141	0xbcabf72a	-0.02099188
142	0x3ce96eae	0.028495159
143	0x3c66d75c	0.014089432
144	0xbda4c2fc	-0.08045003
145	0xbdc464fe	-0.09589575
146	0xbe483f40	-0.19555378
147	0xbe427df1	-0.18993355
148	0xbdb03491	-0.08603776
149	0xbca90bde	-0.020635542
150	0x3dc71cf8	0.09722322
151	0x3e218d96	0.15776667
152	0x3e2bc25e	0.16773364
153	0xbce9274d	-0.028461123
154	0x3d3d2c1d	0.046184648
155	0xbd9eb59a	-0.077494815
156	0xba3c250c	-0.0007177151
157	0xbc3deb94	-0.011591811
158	0xbd7e6231	-0.06210536
159	0xbc12cc82	-0.008959891
160	0x3d21fb20	0.039546132
161	0x3d01c4aa	0.031681694
162	0x3d97a387	0.07404237
163	0x3d863443	0.06552937
164	0x3d973214	0.073825985
165	0x3d56f820	0.052482724
166	0x3c9c3e14	0.01907257
167	0x3ce79c79	0.028272854
168	0xbc79c6c6	-0.015245145
169	0x3c5c4a98	0.013445519
170	0x3c53e800	0.012933731
171	0xbc10a9ed	-0.008829576
172	0xbde696a9	-0.11259205
173	0xbe0d9432	-0.13826063
174	0xbe3fb8ea	-0.18722883
175	0xbde8212f	-0.11334454
176	0x3c6572c7	0.014004416
177	0x3ddcc00d	0.10778818
178	0x3e0062de	0.12537715
179	0x3de0aaa4	0.10970047
180	0x3e02a704	0.12759024
181	0x3bc77b50	0.006087698
182	0xbdb9f877	-0.09080594
183	0xbe8cbefe	-0.27489465
184	0xbedd16be	-0.43181413
185	0xbe908d08	-0.28232598
186	0xbe4730ca	-0.19452205
187	0xbc5fae1c	-0.013652351
188	0xbdd7a509	-0.10529525
189	0xbab7d62a	-0.0014025618
190	0x3e03f563	0.12886576
191	0x3e695676	0.22786888
192	0x3e59ad9a	0.2125763
193	0x3d5edaa8	0.054407746
194	0xbba4ea4e	-0.005032814
195	0x3c3f2003	0.011665347
196	0x3d059a41	0.03261781
197	0x3cf9977b	0.03046774
198	0xbcababec	-0.020956002
199	0xbda0d753	-0.0785357
200	0xbde8a013	-0.11358657
201	0xbe08304e	-0.13299677
202	0xbe2dc437	-0.16969381
203	0xbc006b46	-0.007838076
204	0x3e157a51	0.14597441
205	0x3deef8ae	0.11668526
206	0x3e6ac0ab	0.2292506
207	0x3e6f290c	0.23355502
208	0x3d65e466	0.05612602
209	0xbcf90d24	-0.030401774
210	0xbe5c1674	-0.2149294
211	0xbec0037e	-0.37502664
212	0xbe93f242	-0.28895766
213	0xbe0c1708	-0.1368066
214	0xbd3a6d9c	-0.045514688
215	0xbc84d153	-0.016213095
216	0xbe241c70	-0.16026473
217	0x3c9585fa	0.018252362
218	0x3e0bd62f	0.13655923
219	0x3e86c866	0.26324767
220	0x3e769e19	0.24083747
221	0x3ded3dbc	0.115840405
222	0x3d0a7daa	0.03381125
223	0x3c2f9192	0.010715859
224	0x3bac36a8	0.005255539
225	0xbca1016d	-0.019654
226	0x3b2dbc2e	0.002650987
227	0xbd893001	-0.06698609
228	0xbe1aaacf	-0.15104221
229	0xbe0b37b3	-0.13595466
230	0xbda0bcfa	-0.078485444
231	0x3d2f16e1	0.04274643
232	0x3def223e	0.11676453
233	0x3e53e6f1	0.20693566
234	0x3e41a715	0.18911393
235	0x3ea5f4d5	0.32413355
236	0x3ea23d67	0.3168747
237	0x3cda5c18	0.026655242
238	0xbe9e3d0a	-0.30905944
239	0xbea529c7	-0.32258436
240	0xbe14d312	-0.14533642
241	0xbd57ffae	-0.05273407
242	0xbcb10929	-0.021610813
243	0x3bb17da0	0.005416587
244	0x3d03bce3	0.03216256
245	0x3d888cc5	0.06667475
246	0x3d70d3fa	0.058795907
247	0x3e8b766b	0.27238783
248	0x3e9e698a	0.30939895
249	0x3e1221c1	0.14270689
250	0x3ca69382	0.02033401
251	0x3c68eb85	0.0142163085
252	0x3c8d75bc	0.017268054
253	0xbcc8ade1	-0.024496974
254	0x3c0f484c	0.008745264
255	0xbd199d17	-0.03750333

linear1.bias f4 [32]
0	0x3db55431	0.08853949
1	0x3e9b596b	0.30341658
2	0x3cc25d05	0.023725996
3	0x3e8b37b7	0.27190945
4	0x3ecd6878	0.40118766
5	0xb95a1b64	-0.00020800304
6	0xbc42afc6	-0.011882728
7	0x3eb3a2ea	0.3508523
8	0x3d8e0cc4	0.069360286
9	0x3e9f64be	0.31131548
10	0xbe7c61e9	-0.24646725
11	0x3e820b43	0.25399217
12	0x3b7e9bd2	0.00388502
13	0x3dd395b3	0.10331287
14	0x3eb0d35b	0.3453625
15	0x3e4d8b7f	0.20072745
16	0xbc6f5278	-0.014607064
17	0xbe908ddc	-0.2823323
18	0xbe6f125a	-0.23346844
19	0x3ecd8b88	0.40145516
20	0xbf05583a	-0.5208775
21	0x3a965b88	0.001147137
22	0xbd4694af	-0.04848164
23	0xbd3e075b	-0.046393733
24	0xbcdd9fad	-0.027053678
25	0x3cc1e104	0.023666866
26	0x3d6b07ee	0.05738061
27	0x3e0d3935	0.13791354
28	0x3ea1be3c	0.3159045
29	0xbe156eea	-0.14593092
30	0xbd18931f	-0.03724968
31	0xbe95948c	-0.29214895

linear2.weight f4 [10, 32]
0	0x3d95f6bc	0.073224515
1	0xbefe87da	-0.49713022
2	0x3e187d9f	0.1489167
3	0xbe1edf2c	-0.15514821
4	0xbd11dcab	-0.035610836
5	0x3cf200a5	0.029541323
6	0xbde518d7	-0.111863784
7	0xbe0b5f8c	-0.13610667
8	0xbf23b5c2	-0.63949215
9	0xbf383713	-0.71959037
10	0xbed9edd6	-0.42564267
11	0xbd8355df	-0.06412863
12	0x3f0bd0bd	0.54615384
13	0xbf2b3934	-0.6688416
14	0x3e39f056	0.18158087
15	0xbde7328b	-0.11288937
16	0xbd1761a5	-0.036958355
17	0xbe94055d	-0.28910342
18	0x3f633c9d	0.88764364
19	0xbec885de	-0.39164633
20	0x3cb8c127	0.02255304
21	0xbf1f7b9c	-0.6229799
22	0x3f06ace8	0.52607584
23	0xbe19a569	-0.15004505
24	0x3e64c7f3	0.223419
25	0xbeeba586	-0.46024722
26	0x3f0a8268	0.54105234
27	0xbc158148	-0.009125061
28	0x3f190729	0.5977655
29	0x3ef6ac67	0.48178408
30	0x3f5dece5	0.866896
31	0x3f0b28ac	0.54358935
32	0xbe52d031	-0.20587231
33	0x3ef35b2d	0.475305
34	0xbdc4488b	-0.09584149
35	0x3f1a8f9b	0.60375375
36	0xbf47bf34	-0.7802613
37	0xbd9d3bb9	-0.07677407
38	0x3e20261a	0.15639535
39	0x3f2aee27	0.6676964
40	0x3f2c23f6	0.6724237
41	0xbf312123	-0.6919119
42	0x3f12b3f6	0.5730585
43	0x3eab5d3c	0.3346957
44	0xbe8415f3	-0.25797996
45	0xbc868685	-0.016421566
46	0xbda1651c	-0.07880613
47	0xbf0e8fe4	-0.5568831
48	0xbdfd0bb0	-0.12355745
49	0xbe033bca	-0.12815776
50	0xbf51d26a	-0.8196169
51	0xbc1f5296	-0.00972428
52	0xbedc0fd0	-0.42980814
53	0xbf41edec	-0.75753665
54	0xbf1a80a9	-0.6035257
55	0x3e6b3fe2	0.22973588
56	0xbef77dd7	-0.48338196
57	0x3f69decd	0.9135559
58	0xbf000421	-0.500063
59	0x3f1aea3b	0.6051366
60	0xbd6dd024	-0.058059826
61	0xbe7f873a	-0.24953929
62	0x3b30dfbc	0.0026988825
63	0xbe0c0be5	-0.13676412
64	0x3d54828b	0.051882308
65	0x3f0cd86f	0.5501775
66	0xbf378bc0	-0.71697617
67	0xbf603668	-0.8758302
68	0x3e1abe01	0.15111543
69	0xbe107d6b	-0.14110343
70	0xbc0b0163	-0.008484217
71	0xbe9d4f5a	-0.30724603
72	0xbef68ed1	-0.48155835
73	0xbec9da88	-0.3942454
74	0x3f8df22d	1.1089531
75	0x3f7eed06	0.9958042
76	0x3efdaa15	0.49543825
77	0xbe0bc461	-0.13649131
78	0xbfa42c3f	-1.2826003
79	0x3f0d5007	0.5520024
80	0x3d203b7c	0.03911923
81	0x3e7cefa8	0.24700797
82	0xbe7a0c36	-0.2441872
83	0xbd21062c	-0.039312527
84	0x3f4c2fee	0.79760635
85	0xbee12fff	-0.4398193
86	0xbe89be2c	-0.26902902
87	0x3ef730f8	0.48279548
88	0x3e93afd6	0.2884509
89	0x3f8b494e	1.0881746
90	0x3e9b17de	0.30291647
91	0x3f3b0e89	0.73069054
92	0xbe8eee6b	-0.27916273
93	0x3f282aa3	0.6569006
94	0xbece58da	-0.40302163
95	0x3d4be0cb	0.049774926
96	0xbf063487	-0.524239
97	0xbe0fd4ab	-0.1404597
98	0xbeb0e0ff	-0.34546658
99	0xbf4f118f	-0.8088617
100	0xbcdde2fd	-0.027085776
101	0x3e0fe4a9	0.1405207
102	0x3d5837b6	0.052787505
103	0x3f321527	0.69563526
104	0x3f007068	0.5017152
105	0xbf040fa5	-0.5158637
106	0x3f82eb3b	1.0228037
107	0xbd492f02	-0.049117096
108	0x3e339212	0.1753619
109	0x3f0540ba	0.5205189
110	0xbe86c118	-0.26319194
111	0xbef34a7f	-0.47517774
112	0xbde1cda6	-0.110255525
113	0x3f38df00	0.7221527
114	0x3e1c309e	0.15252921
115	0x3efb1554	0.4903971
116	0x3f08ad3d	0.5338934
117	0x3e9f6eec	0.31139314
118	0xbe81d8aa	-0.25360614
119	0x3f605fed	0.8764637
120	0x3f9db522	1.2320902
121	0xbf262aac	-0.6490886
122	0xbef329f6	-0.4749295
123	0x3c27abe5	0.010233854
124	0xbf0a68e9	-0.5406633
125	0xbf36d879	-0.7142406
126	0xbe868ff6	-0.26281708
127	0x3f188ac1	0.5958672
128	0x3f23ebda	0.64031756
129	0xbf39bb06	-0.72551
130	0x3e5683f3	0.20948772
131	0x3e436454	0.19081241
132	0xbf6cbad3	-0.9247257
133	0x3e3163d3	0.17323236
134	0x3cb8972f	0.022533027
135	0x3e832f58	0.25622058
136	0x3e747494	0.23872596
137	0x3f62c8ab	0.88587445
138	0xbf53ba27	-0.8270592
139	0xbf129985	-0.572655
140	0x3e46481e	0.19363448
141	0x3efc83c1	0.4931927
142	0x3e10db94	0.14146262
143	0x3ec77d7c	0.38962924
144	0xbe29b16e	-0.1657159
145	0xbf4596fc	-0.7718351
146	0xbf16cff8	-0.58911085
147	0xbeb3405c	-0.3501004
148	0xbfa6c3f1	-1.3028547
149	0x3d6b3788	0.057426006
150	0x3ee1f027	0.44128534
151	0xbf18122b	-0.5940272
152	0xbe5da0a0	-0.21643305
153	0x3e0db771	0.13839509
154	0xbf074bcc	-0.5285003
155	0x3f59a554	0.85017896
156	0xbf1ad521	-0.6048146
157	0x3f281b53	0.65666693
158	0x3d9f32cc	0.077733606
159	0xbf7198d1	-0.94373804
160	0x3e9b194d	0.3029274
161	0x3f0d8fa5	0.5529731
162	0x3e3e377f	0.18575858
163	0x3ee52a32	0.44758755
164	0x3facab57	1.3489789
165	0x3d3918ca	0.045189656
166	0xbce023be	-0.027360793
167	0x3efad933	0.48993835
168	0xbf019897	-0.5062346
169	0x3ef5e447	0.48025724
170	0xbeb683f2	-0.3564754
171	0xbef3f806	-0.47650164
172	0x3e718a37	0.23587881
173	0x3f1211e1	0.5705853
174	0x3f3ee979	0.74575
175	0xbeb60570	-0.35551023
176	0xbe2a67c4	-0.16641146
177	0x3f8b1064	1.0864377
178	0xbd8a9fd1	-0.06768764
179	0x3f0811fb	0.53152436
180	0x3ed0cc08	0.40780663
181	0x3d36572c	0.044516727
182	0xbf1e3648	-0.61801577
183	0xbe95f3d1	-0.2928758
184	0x3ebca849	0.3684714
185	0xbf3fbbf0	-0.74896145
186	0x3ec21243	0.37904558
187	0xbe9036d4	-0.2816683
188	0x3f47d130	0.7805357
189	0xbf630cbd	-0.8869131
190	0xbf665e9f	-0.8998813
191	0xbe9258f9	-0.28583506
192	0x3ead4c2c	0.33847177
193	0x3f4796a8	0.7796426
194	0x3e5c1c59	0.21495189
195	0x3f0d7613	0.5525829
196	0xbea93d00	-0.33054352
197	0x3dbac937	0.0912041
198	0x3baeca4b	0.005334174
199	0xbf11a2c6	-0.56889
200	0xbe153447	-0.14570723
201	0x3eecbc7e	0.46237558
202	0xbf2e1bd8	-0.68011236
203	0xbde089e3	-0.109638
204	0x3f672305	0.9028781
205	0xbf04efd8	-0.5192847
206	0x3d4c500d	0.04988103
207	0x3eea07a8	0.45708966
208	0xbceab026	-0.028648447
209	0xbf47b90b	-0.7801673
210	0x3f62d75a	0.8860985
211	0xbf69247e	-0.9107131
212	0xbc75109c	-0.014957573
213	0xbd42f742	-0.047599085
214	0xbf702be2	-0.9381696
215	0xbed937fe	-0.4242553
216	0xbe95fb19	-0.29293135
217	0xbf228242	-0.6348001
218	0xbe303bd0	-0.17210317
219	0xbefce610	-0.49394274
220	0x3f5b4921	0.8565846
221	0xbe88b485	-0.26700225
222	0x3d4ee82e	0.050514393
223	0x3e06270b	0.13100831
224	0xbee3370d	-0.44377938
225	0xbea4c0b9	-0.32178286
226	0xbe2eafb4	-0.17059213
227	0x3e91a657	0.2844722
228	0x3f10b025	0.56518775
229	0xbd918fd9	-0.07107515
230	0xbdecfe6b	-0.11571964
231	0x3e64814a	0.22314945
232	0xbe3fc1a8	-0.18726218
233	0xbf17ab0e	-0.59245384
234	0x3fba0a71	1.4534436
235	0x3f9266df	1.1437644
236	0xbf136596	-0.5757688
237	0xbead2247	-0.33815214
238	0xbf2068d5	-0.6265996
239	0x3f3bb67d	0.7332533
240	0xbe178241	-0.14795782
241	0xbf43a0fb	-0.7641751
242	0xbf27197d	-0.6527327
243	0x3f42a1ef	0.7602834
244	0xbe8cd86b	-0.27508864
245	0x3ecd3d98	0.40086055
246	0x3f190099	0.59766537
247	0xbde7b025	-0.11312894
248	0xbddb9577	-0.107218675
249	0x3eebbaf2	0.46041065
250	0xbe9b6b66	-0.30355376
251	0xbe317c59	-0.17332591
252	0x3dfff902	0.12498666
253	0xbe4dd4e5	-0.20100744
254	0x3f04351a	0.51643527
255	0xbeef25a4	-0.46708405

linear2.bias f4 [10]
0	0xbefa1832	-0.48846585
1	0x3ed863fe	0.42263788
2	0xbea9fa49	-0.33198765
3	0xbe131f43	-0.14367394
4	0x3e7f5396	0.24934229
5	0x3e2f7819	0.17135657
6	0xbc720e83	-0.014773968
7	0x3e3d023c	0.18457884
8	0x3d91c782	0.07118131
9	0x3d81491d	0.063127734
