mnist_model_final.pth (torch, 815771 bytes, 4 tensors)

fc1.weight f4 [256, 784]
00000000: 70a2 7101 10b5 5f00 0ca4 7800 a8e3 a500
00000010: cce9 5f81 8043 7880 2012 0f00 40bc 4380
00000020: 809d 2d01 e0bd be00 6cee 8101 58dd de80
00000030: d22d fc83 d605 8785 2f3a b401 4072 3c00
00000040: 1085 8680 5c0d 6400 6c3c c700 c00c 9680
00000050: 80b5 9580 f87e 1801 727b ba01 7e35 9701
00000060: b879 ec00 70ff 6d00 8cc3 0f80 d4a6 8e01
00000070: 84fb bb80 689c a600 f0d4 2d81 8827 8f80
00000080: 2814 4281 3655 1939 d0dc 493b d547 033c
00000090: 0b3d 723a 6b0f dd3c bfff 033d dc83 193d
000000a0: c8f5 713c b367 853c 1d19 ca3b 5c32 553c
000000b0: a4dd 093d 41dc 0c3d f3ef 263b be30 033d
000000c0: f581 ac3c 2918 0e3a aba4 6539 a92a a12c
000000d0: a848 4b80 740d 4481 7c28 4381 08b1 cd80
000000e0: c010 b300 ac1e 6781 94fb 1eb3 3dc6 0aa3
000000f0: b534 ae28 ee13 89b9 53dd 0d3c be8a 3d3d
00000100: 5f78 943d 30b9 5c3e 745a 913e 5ab2 843e
00000110: 8ffd 733e fcf0 4a3e 6458 393e f0f5 8c3e
00000120: 2ba2 7b3e 261c 723e f69a ff3d 326f a93d
00000130: fc3b 913d 8d6b c03d f4a0 1a3d 9ad4 7dbb
00000140: 8b7c c73a 5054 3eb8 39fb 9d01 508f 2481
00000150: b015 3f81 98f1 2a01 fbf5 2db5 9141 1fb2
00000160: 9078 65aa 951d 103d 40c5 003e 4142 053e
00000170: 2091 923d 7673 403e c133 813e 1f9b 333e
00000180: 2c56 4a3e dc83 d33d b557 033e 8ad2 833e
00000190: 3595 633e bf68 053e 4d97 b13d 32d7 ee3d
000001a0: 1dd1 083e 8ae1 0a3e db6a 953d db5d 863d
000001b0: 6d21 9c3d 48ed b83a 1d02 0939 36a0 8401
000001c0: a02b 1800 c41b acb1 a76c d637 7f1e 0436
000001d0: 6b12 b63b 736e cc3d 8370 223e 47e5 c53d
000001e0: d62f eb3d 1fc9 803d f0cb e13d 97ef ee3c
000001f0: 295f ab3d 3d85 0d3e 67d0 c83d 9053 393d
00000200: 006c 093d a720 0f3c 33bc 95ba c387 683d
00000210: 89a0 b1bc 9e8f 98bc 80e8 bcbd 06a9 4bbc
00000220: 05af 80bd afe6 f13a 6b5c a23c 4915 a23c
00000230: aa48 3c81 a0f2 5780 8789 ae3a 8a80 953c
00000240: d938 a33d 9e79 9d3d f8ff 1b3d e734 df3d
00000250: 44cf 523d 15a2 b9bd 1846 90bc d727 61bb
00000260: 83f4 173d 82b7 3d3d a380 50bc 64f9 8abc
00000270: 4516 163d 9691 62bd 1d1d 79bd ce1b 6cbd
00000280: 877f 9dbd 6aa5 8dbc 77c7 d6bd f146 b9bd
00000290: 9239 a8bd 4368 55bd 29f3 443d ba55 bc3c
000002a0: e084 3081 94b4 5581 206c 883c 232d 583d
000002b0: 5bb0 b53c da0f 293d 8641 af3d 106a 0b3e
000002c0: a3e9 21bd b24b 1ebc d1cf b53d 622c f13c
000002d0: 1b31 5cbd 3724 4abd 0200 dbbc c37b 1f3d
000002e0: 006e cabd 03ea 26be 0c37 f7bd 9e18 40be
000002f0: 3fb7 6ebe 651b 25be f93f 29be 4f70 4fbe
00000300: 3954 31be a864 05bd 6610 ec3c 273d e93c
00000310: 04e5 6000 81a2 6831 4085 0a3c f822 923b
00000320: b751 643d 2cc6 683d 8e0d 833d 08e9 5cb9
00000330: 1405 82bd 405d f7bb 3a5a de3d 7720 853d
00000340: bc7f dfbc 8928 35bd 268f 07bd fb38 a0bd
00000350: 2a88 06be 434d 2abd b008 4abd 4869 0bbe
00000360: ea13 f7bd d320 01be e945 31be fcc0 a2be
00000370: 6a6e 77be c41e c4bb 8f18 ac3c 27b1 7c3c
00000380: e01d 9d81 1754 9f00 a292 d03b 432e 6c3c
00000390: 7543 083e d80d c13d 4137 e63b 5ceb 883c
000003a0: 6d7a ebbc 77fa 483d 0caa cb3d 0cb2 d23d
000003b0: 809f d3bc fa19 d9bb e24d aabc 7674 c2bd
000003c0: c36e d0bd 347c 46bd 2a76 9cbd 1cf4 9ebd
000003d0: 701e 62bd a59c b1bd 0c60 52be 45b6 96be
000003e0: 714b b3be a053 8bbd fec1 b3bc e863 d6a6
000003f0: 268b af01 a0ef a581 7b44 0e3c 08bb 533d
4.4381252e-38 8.789325e-39 1.1079108e-38 1.5234525e-38 -4.1126372e-38 -1.1044474e-38 1.384034e-39 -6.22051e-39
3.1888082e-38 1.7516859e-38 4.7729235e-38 -2.0466883e-38 -1.4821749e-36 -1.2697483e-35 6.6205047e-38 5.551115e-39
-1.235369e-38 9.188342e-39 1.8296939e-38 -1.3779898e-38 -1.3748599e-38 2.8009086e-38 6.8502744e-38 5.55454e-38
2.1716842e-38 1.0101703e-38 -1.447681e-39 5.240195e-38 -1.7263465e-38 1.53008e-38 -3.1927857e-38 -1.3146657e-38
-3.5646634e-38 0.0001462296 0.003080178 0.008012732 0.00092406635 0.02698489 0.03222632 0.037479267
0.0147680715 0.0162848 0.0061675445 0.013012495 0.03365864 0.034389738 0.002547261 0.032028906
0.021058062 0.000542047 0.00021900485 4.5806314e-12 -6.913726e-39 -3.6009167e-38 -3.584489e-38 -1.8889784e-38
1.6444563e-38 -4.2450005e-38 -3.701605e-08 -7.5229736e-18 1.9340739e-14 -0.00026145525 0.008658725 0.046274893
0.072495215 0.21555018 0.28389323 0.2591732 0.23827194 0.1981849 0.18100125 0.27531385
0.24573581 0.2364355 0.12480728 0.08273162 0.07091519 0.09395514 0.037751153 -0.0038731457
0.0015219612 -4.5378052e-05 5.803318e-38 -3.0224864e-38 -3.509672e-38 3.1397404e-38 -6.480547e-07 -9.269926e-09
-2.0381114e-13 0.03518446 0.12575245 0.13013555 0.07156587 0.18794045 0.25234798 0.17539643
0.19759434 0.103278846 0.12826426 0.25746566 0.22224887 0.13028239 0.086714365 0.11662139
0.1336102 0.13562599 0.07295772 0.0656087 0.07623563 0.0014108801 0.00013066125 4.8719033e-38
2.219702e-39 -5.0090154e-09 2.5561383e-05 1.9687284e-06 0.005556395 0.09982004 0.15863232 0.09662872
0.11483733 0.06288361 0.11025226 0.02916698 0.0836776 0.13820358 0.098053746 0.045245707
0.033550262 0.008735812 -0.0011423886 0.056770097 -0.021682994 -0.01862317 -0.09224033 -0.012430435
-0.06283382 0.001845559 0.019819459 0.01978554 -3.458228e-38 -8.076726e-39 0.0013316133 0.018249769
0.07969827 0.07689212 0.038085908 0.10898762 0.051467195 -0.09064118 -0.017611548 -0.0034356022
0.03709842 0.046317585 -0.012725982 -0.016964622 0.03664233 -0.055314623 -0.06081878 -0.057643704
-0.076903395 -0.01729079 -0.10487264 -0.09046734 -0.08214106 -0.052101385 0.048083458 0.022990096
-3.2421428e-38 -3.925148e-38 0.01665312 0.05277742 0.02217882 0.041274883 0.085574195 0.13614678
-0.039529454 -0.009661602 0.088775285 0.029440109 -0.053757768 -0.049350943 -0.026733402 0.038936388
-0.09884262 -0.16300206 -0.12071046 -0.1875939 -0.2331209 -0.16123731 -0.1652831 -0.20257686
-0.17317285 -0.032566696 0.028816413 0.028471543 8.898363e-39 3.3852816e-09 0.008454621 0.004459735
0.05574199 0.056829616 0.0639907 -0.00021067646 -0.06348625 -0.007548958 0.10857053 0.06500333
-0.027282588 -0.04422811 -0.0330955 -0.07823368 -0.1313788 -0.04157759 -0.04932469 -0.1361438
-0.12064345 -0.12610178 -0.17311825 -0.3178786 -0.24163213 -0.005985113 0.021007804 0.015423096
-5.771556e-38 1.463201e-38 0.0063651362 0.0144153265 0.13306983 0.094264686 0.0070256297 0.01671379
-0.0287449 0.049066987 0.09944543 0.10287866 -0.025832891 -0.006625411 -0.02078909 -0.094948694
-0.10177376 -0.048458293 -0.076397255 -0.07761404 -0.05520481 -0.08672456 -0.20544451 -0.29435936
-0.35018495 -0.068030596 -0.021943089 -1.4876313e-15 6.4484516e-38 -6.095527e-38 0.008683319 0.05169204

fc1.bias f4 [256]
00000000: c895 a33d 1c4d 61bc 9b0f 36b7 f4d1 babd
00000010: 9aad aabc 655a 183d e3a2 f83d 2686 c4bd
00000020: bcbe 133e 1a1b 883d a4fc 273e 5a21 c3bc
00000030: 6204 173c 9a99 f43d 8dc6 7a3c 1db1 0abe
00000040: 5224 473d 061b 613d 34f0 2b3d 7492 7cbd
00000050: ca62 bf3d 2da1 0c3d 36d4 f23d ca91 35be
00000060: e581 a43d d423 1abd 76bd a9bc e46b 933d
00000070: 18df 523e 7e68 613d 3e83 a7bc 7131 fe3b
00000080: 442a 27bc fa3f 74bd 7be2 d43d 9036 4cbe
00000090: a2e5 4f3c 7210 7e3d 1290 75be 8200 ebbd
000000a0: 865f f5bd 0678 c03d c604 25be 8290 573d
000000b0: b703 303d 9ec9 dc3d d111 7d3e 0e13 aabd
000000c0: 20c7 30be 28e6 903c 8ae7 85bd 8ad7 21be
000000d0: 05ad f3bc a234 a7bd 1583 2eb7 f8eb a03d
000000e0: b9e8 f0bc 4453 f73d 7e50 c43d 2d9e a6bd
000000f0: 9213 a8bc f55c 9a3d ecd7 62b0 ead8 45be
00000100: bd40 303e acba 923d 4710 003e 380b 3f3d
00000110: e032 58bc 7604 49be 8d65 b7bc 24be e4bc
00000120: b586 f73d 07df a8bc e81d 373c a058 bf3d
00000130: 8e30 55bb c838 3dbc 7250 953d 6adb 723d
00000140: 0427 03bc 5c63 e7bd 4730 c5bb 2ca1 3ebe
00000150: 762b b9bd 0dfb 153c bdcb 04bc e714 ae3d
00000160: d6ce 8dbd e321 09be aec9 853e b0a5 a33c
00000170: 6487 173e 56b7 d03d adbf 933d ee31 c23d
00000180: 3055 65be 30c7 9fbd a891 c23d 1447 613e
00000190: 87f7 16be 0ead 5ebc bf4d 80b6 4da2 c63d
000001a0: 7885 123d 6322 503d 6d69 983d 3db8 bbbd
000001b0: cd58 f53c f0bf 00bc 49d7 7abd cf29 ebbd
000001c0: 8cf5 0eb8 b24b 1c3d d0fa 05be 02ca 693d
000001d0: 3bd3 873d fb8e 97bd cf29 7d3d 8567 433d
000001e0: 8e8b f03d f15e 4d3d 9bb0 3abe d441 b5bb
000001f0: 570a 893c 16a9 94bd 340b 38be d7a2 8db9
00000200: e991 0dbe 9575 b43d 000c 5a3a 7d66 593e
00000210: df2f 3b3c 9f98 0c3c c727 1d3e 269d f3b9
00000220: 47f4 793d f35f 92bb 5f8e 1f3d 232c 12b6
00000230: d740 be3d 45c0 05be f1ee a33d 37a7 ba3d
00000240: bcbb 2d3c f183 8abd f1c3 8bbd 4ec5 b3bd
00000250: b71d e63d 6b80 9a3d 6ff1 dcb9 53e8 2a3e
00000260: c291 10be 07cc 5f3d 1110 bcbd 1711 c33d
00000270: dbab 52bd eb74 6c3d b7c0 803d 6db7 3fb5
00000280: 5d45 ca3d 97e7 b4bd b081 433e 99ac 9ebb
00000290: 81e3 03ac 54c6 c4bd c7b9 c9bc 3071 5e3e
000002a0: 8a8a d5bd d777 0bbd db23 133e 376b 4a3d
000002b0: b8e4 53be c838 193e a4fd 63bd 8167 173d
000002c0: c4e1 443e 1bfc 153d 4038 9e3d a1cd b33d
000002d0: 88c8 13be 7bed 7a3d 1c78 bc3d 61c9 b93d
000002e0: a388 29bd bbae d53d 67be dcbc 8233 d83d
000002f0: 6de3 e43d 93c5 65bd 00db 1bbe d045 04b6
00000300: bc29 313e 0495 69bd 0806 9bbd adee 01be
00000310: 89dc bfbd 5fbe ba3d 999f 21be 0b4e bfbc
00000320: 0079 d23c e044 ba3d 98ef cd3d de45 eeba
00000330: 2342 863e 3965 01bd 6d20 23be 1506 f93d
00000340: de27 49be 5207 a03d a1fd acbd c05c 59bd
00000350: 4c29 a1bd 8b06 c9bd 1ebd ee3d e939 4dbd
00000360: a8d1 dcbd bd44 413d 3004 b53d 7c39 403e
00000370: 7bd8 0f3d fa26 35be 33c8 423e 6792 873d
00000380: 3bd4 943d 6874 a63c 735a 09ac 7cd7 9bbd
00000390: 9b89 3c3d 0229 c23d 5e48 303d 7d26 7abc
000003a0: 608c 8d3c f4c5 8d3c b645 da3c 14da 043e
000003b0: 8bae 16be e059 283c 62f4 cfbd 33cd bebd
000003c0: b027 06be 683b ebbd 7a13 95bc 20d8 0a3e
000003d0: 3f7f 1abe 63cd e3bc 630a 843e 6daa 353e
000003e0: 1402 093b 2d43 76be bf87 d5bc 8db2 fdbd
000003f0: d001 3f3e bee1 f5bc f948 23be d1a6 843d
0.07987553 -0.013751294 -1.0851679e-05 -0.09122077 -0.020834733 0.037195582 0.12140443 -0.09595899
0.14428228 0.06645794 0.16404969 -0.023819614 0.009217354 0.1194336 0.015306127 -0.13544126
0.048618622 0.054957412 0.041977122 -0.061663106 0.093450144 0.034333397 0.11856882 -0.17731395
0.08032588 -0.037631825 -0.020720225 0.07198313 0.20592916 0.055031292 -0.020448323 0.0077573587
-0.010202948 -0.059631325 0.1039476 -0.19942689 0.012689026 0.062027402 -0.2398074 -0.11474706
-0.1198111 0.09397893 -0.16115102 0.052628048 0.042972293 0.10780643 0.24713828 -0.08304416
-0.1726346 0.017687872 -0.06538303 -0.15804878 -0.029745588 -0.08164336 -1.0401728e-05 0.078575075
-0.029407846 0.120764285 0.09585665 -0.081356384 -0.020517144 0.075372614 -8.2525164e-10 -0.19321027
0.17212196 0.07164511 0.1250621 0.04664156 -0.013195723 -0.19630608 -0.02238729 -0.027922697
0.1208624 -0.02061416 0.011176564 0.09343076 -0.0032530162 -0.011549182 0.07290734 0.05929128
-0.0080049075 -0.11298248 -0.006017718 -0.1861617 -0.09041493 0.009154093 -0.008105216 0.085000806
-0.069242164 -0.13391833 0.26130432 0.019976467 0.14797741 0.101912186 0.07214294 0.094821796
-0.22395778 -0.07801664 0.09500438 0.2199977 -0.14742862 -0.013591064 -3.823748e-06 0.09698925
0.035771817 0.050814044 0.07441983 -0.09166 0.02994957 -0.0078582615 -0.06124047 -0.11482584
-3.408412e-05 0.038158126 -0.13083959 0.057077415 0.06632086 -0.07400318 0.06180745 0.047706146
0.11745368 0.05013937 -0.18231432 -0.005531529 0.016728563 -0.07258813 -0.17973024 -0.0002701494
-0.13825192 0.088114895 0.0008317828 0.21230502 0.011424988 0.00858131 0.15347205 -0.00046465656
0.061023977 -0.0044670044 0.038954135 -2.1781386e-06 0.09289711 -0.13061626 0.08004559 0.09113925
0.010603841 -0.06763447 -0.06824482 -0.08777867 0.112361364 0.07544025 -0.00042141552 0.16690187
-0.14118102 0.054637935 -0.09182752 0.09524744 -0.051433425 0.05772869 0.062867574 -7.1419964e-07
0.09876511 -0.08833235 0.1909244 -0.0048423526 -1.874251e-12 -0.096081406 -0.024624718 0.21722865
-0.10426815 -0.034049835 0.14369147 0.049418654 -0.20692718 0.14963067 -0.055661812 0.036963943
0.19226748 0.03661738 0.077255726 0.08779455 -0.14431965 0.061261635 0.092025965 0.09071613
-0.041390073 0.10433718 -0.02694626 0.10556699 0.111761905 -0.056096625 -0.1522026 -1.971017e-06
0.17301077 -0.057026878 -0.0756951 -0.12688704 -0.093682356 0.09118342 -0.15783538 -0.023352643
0.025692463 0.09095168 0.100554645 -0.0018178781 0.26222333 -0.031590674 -0.15930338 0.12159363
-0.19644114 0.07813896 -0.084468134 -0.05306697 -0.07869205 -0.09815701 0.11657165 -0.050104056
-0.10782176 0.047184695 0.08838689 0.18771929 0.03511856 -0.1769065 0.19021682 0.06619721
0.07267042 0.020319179 -1.951908e-12 -0.0760946 0.04602967 0.09480478 0.043037765 -0.015267965
0.01727885 0.017306305 0.026644569 0.12973815 -0.1471502 0.010275334 -0.10154034 -0.093164824
-0.13101077 -0.1148594 -0.018197764 0.13559008 -0.15087603 -0.027807897 0.25789174 0.17740794
0.002090578 -0.24049063 -0.026065705 -0.123875715 0.18653035 -0.030014869 -0.15945806 0.0647713

fc2.weight f4 [10, 256]
00000000: 1bae b3be 2d42 a93d 9032 b83a 25d8 013e
00000010: c8bb 0cbc 50a5 90be ff88 25be c878 bcbe
00000020: 7ca8 843e cf44 653d 8882 603d c08d 573e
00000030: d919 eebc 71cf ddbd b9a4 1dbd 62b2 853d
00000040: 5c7e cebe a98c c1be c2b9 233e a258 cebe
00000050: 9431 e5be e6a8 a8be 7bd7 8ebd d3f1 b73d
00000060: d471 b4be 3fa3 1cbf 3888 0d3e 9c89 23be
00000070: 40e1 04bf e8aa 99bd bbaf d9be 5701 f33d
00000080: 2c72 55be 8543 94be 2e97 8fbe 76f8 fdbe
00000090: 4021 953d 252f bdbe 7292 3d3e 3722 c83d
000000a0: 8096 a63d 1b6b 10be 02f2 8fbe aad1 883d
000000b0: abfa 8b3d 968c 313e 247a 7c3e 27d7 623e
000000c0: fc41 063e c69f d03d bd12 a83d 0133 a4be
000000d0: 56be fd3d 1008 d2be 2626 17b5 b157 dcbe
000000e0: afa2 fdbe 0730 9ebe 9a1a 87be e284 103d
000000f0: c2e1 6b3d 58ac 44be 7131 94a8 94b8 33be
00000100: fba4 3b3e 84b1 173e 0640 3fbe 3350 0d3e
00000110: 2d5c 973c c6b1 84be 182e 3d3e cd98 a6be
00000120: 57ef 71be e151 a33d 5a31 8b3e f6a6 24be
00000130: 284f 4abf 214b f9be 0c0a 9fbe ad2f 49be
00000140: c53c 61be 3e6b 303d b90f f23d 763e 823d
00000150: 4dc5 60bc 9076 4fbe 8c80 cd3c ce71 47be
00000160: 4c12 023e fa9a 9c3d f3b2 19be bf56 10be
00000170: d050 28bc 3d71 f4be 8d68 a03d ed0f ac3d
00000180: aae0 5ebc 08b9 afbe a48b 05be b376 823d
00000190: 3fe5 823e 2a0a 6bbe 2123 30b2 068a cfbe
000001a0: 2c90 bfbe c186 8c3c 68b1 fd3d 47c4 373e
000001b0: ebb3 dbbe 91f1 f6be 74fb 76bc 9c8c a2be
000001c0: 450a 9835 f571 fd3d 4d4d 54be ac57 04bf
000001d0: 3db0 01be 1dd7 0c3e 45af a7be 756b b4be
000001e0: 1846 243d 32cc 87be 9593 1c3e de43 85be
000001f0: e6d2 053e 0ab5 35be 5d6d 883d 0c51 1bb9
00000200: ba16 033e 5b99 143e cc94 66be 428c 03bf
00000210: 45a2 1bbd 4717 f0bd 76cd b2be 20bd 44bc
00000220: 3bc9 343e dbef a6be 40b5 5d3d de69 cab3
00000230: dd72 61be 465b 8ebc edf1 223e 9151 41bd
00000240: fdb5 263e 62fe b8bd ec0e e4be 26e6 0c3d
00000250: f9d7 a7bd 42ad a4bd b9a8 acbb da0c cbbe
00000260: b099 bbbd 04aa 093e ad4c 37bd 03f4 a43d
00000270: 4a9e debe ae9b d83d d100 a1bd 14cd 0ea4
00000280: 7ec7 89be ed0c 383e fda3 923d 0ac6 91be
00000290: 18be 45af d6b8 383e 899f 533d 3b3c f3be
000002a0: b1d0 ad3d 6b95 5dbc 40fa b4bd 1821 363d
000002b0: 9b54 a13d 6bc1 ef3b 4ac9 c93d 3cae 8bbe
000002c0: b1e0 2bbf 4090 a5be a667 0bbd bcce 66be
000002d0: 51da 39bd 468c b3be 0060 a9bd 8de7 1fbf
000002e0: 28d1 a1bd ea9b 2f3e 3d6e ebbe f412 a5be
000002f0: 5a60 cd3c 60ad 74be f259 a1bd a70a 02bb
00000300: b167 be3d 57c0 23be f1ad b13d 2da9 c4be
00000310: 47dc 013e df43 64bd 2a7e a83d a973 9abd
00000320: 8b76 f73d cc90 e83d 9016 43be eccd 57be
00000330: 95d2 823d c270 033e 0767 7cbe 40fe 22bd
00000340: abca 383d 5155 0d3d 825e 133e e4cb 2fbe
00000350: b925 f6be 4d4b 5bbe 4aeb 69be 9a6c ed3d
00000360: 10e9 d5be 0709 21be d67c 483e a711 9fbc
00000370: 150d 9cbe 0cbb 2ebe 73b6 043e 9310 2abb
00000380: 0ce0 9d3d 5e2c 9b3d 63bf 46a7 5319 d53d
00000390: 4e7c 083b 9910 893d 29e4 95be 25ef 9a3d
000003a0: 0839 8d3e c4d7 d03d fad7 ddbd d740 77be
000003b0: 5d75 993e 87ed c53d 533e 6bbe 4c91 113e
000003c0: 78b8 1dba cdb5 9dbe e1eb 7f3d 32ba ecbe
000003d0: b9a4 c53d 52c0 833d 222c fabe a13e 8abe
000003e0: 17cf 483e ef91 58be 3bf3 9dbe e431 903d
000003f0: 4938 4a3e a8af 27be d28f 07be 3b05 f9be
-0.3509377 0.08264575 0.0014053155 0.12680109 -0.008589692 -0.28251123 -0.16165541 -0.368109
0.25909793 0.055973824 0.054811984 0.21050167 -0.02906506 -0.10830582 -0.03848717 0.065281644
-0.4033078 -0.37802628 0.1598883 -0.40301996 -0.44764388 -0.3294136 -0.069746934 0.08981671
-0.35243094 -0.61186594 0.13821495 -0.15970463 -0.51906204 -0.07503301 -0.42516884 0.1186549
-0.20844334 -0.28957763 -0.28045028 -0.49603623 0.072817326 -0.3695003 0.18512896 0.09772151
0.08134174 -0.14103357 -0.28114325 0.06680615 0.068349205 0.17338786 0.24655968 0.22152387
0.13111109 0.10186724 0.08206699 -0.32070163 0.12389819 -0.41021776 -5.6307397e-07 -0.43035653
-0.4953818 -0.30896017 -0.26387483 0.035282977 0.057588346 -0.19206369 -1.6452743e-14 -0.1755088
0.18324654 0.1481381 -0.18676767 0.13800125 0.01847657 -0.2591688 0.18474615 -0.32538453
-0.23626457 0.079746015 0.2718609 -0.16079316 -0.7902703 -0.4869013 -0.31062353 -0.19647093
-0.21995838 0.043071024 0.11819405 0.0635957 -0.013718915 -0.20260072 0.02508571 -0.19477007
0.12702292 0.07646747 -0.1500967 -0.14095591 -0.010273173 -0.47742644 0.078324415 0.08401475
-0.013603369 -0.34320855 -0.1304155 0.06370296 0.25565526 -0.22953096 -1.0252536e-08 -0.4053499
-0.37414682 0.0171541 0.12387353 0.17945968 -0.42910704 -0.48231176 -0.0150745995 -0.317479
1.1327871e-06 0.12375251 -0.20732613 -0.51696277 -0.12664886 0.13753934 -0.32750908 -0.35238233
0.04010591 -0.26522976 0.15290673 -0.2602834 0.13068733 -0.17744842 0.066614844 -0.00014812144
0.12801638 0.14511625 -0.22517699 -0.5138589 -0.03799655 -0.1172319 -0.3492238 -0.012007982
0.17654888 -0.3260487 0.05412793 -9.425615e-08 -0.22016473 -0.017377507 0.159126 -0.04719693
0.1628036 -0.09032895 -0.44542634 0.034399174 -0.081954904 -0.08040859 -0.0052691367 -0.39658242
-0.09160173 0.13443762 -0.044750858 0.08054354 -0.4348014 0.105765685 -0.07861484 -3.096505e-17
-0.26910013 0.17973681 0.071601845 -0.28471404 -1.798458e-10 0.1803926 0.051665816 -0.4750689
0.0848707 -0.013524394 -0.08836794 0.044465154 0.07877465 0.0073167584 0.09852846 -0.27281368
-0.67139727 -0.32336617 -0.034034394 -0.225398 -0.04537422 -0.35067958 -0.08270264 -0.62462693
-0.079012215 0.1714932 -0.45982543 -0.32241023 0.025070358 -0.23894262 -0.07878484 -0.0019842775
0.09297121 -0.1599134 0.08675755 -0.3841032 0.12681685 -0.05572879 0.08227189 -0.07541592
0.12083157 0.11355743 -0.19051576 -0.21074647 0.063878216 0.12835982 -0.24648677 -0.039793253
0.045115154 0.034505192 0.1439152 -0.17167622 -0.48075655 -0.21415444 -0.22843662 0.1159298
-0.41779375 -0.157261 0.19578871 -0.019417597 -0.3047873 -0.1706354 0.12960224 -0.002594982
0.07708749 0.07576822 -2.758177e-15 0.10405221 0.0020826044 0.06692619 -0.29275635 0.075651444
0.27582574 0.10197404 -0.1083221 -0.24145828 0.29972354 0.09664445 -0.22972994 0.14215583
-0.00060165627 -0.30802765 0.06248081 -0.46235806 0.09650559 0.064331666 -0.48861796 -0.27000907
0.19610249 -0.21149419 -0.30849633 0.07040766 0.19748034 -0.16375601 -0.13238457 -0.48636803

fc2.bias f4 [10]
00000000: 4335 e83c 35b0 ca3a fc36 fdbd 3b4a 53be
00000010: b547 2c3e b5cd d9bc e7f5 663c 81d7 e9bd
00000020: f580 b93e 60cb b83d
0.02834571 0.0015463891 -0.12364003 -0.20633785 0.16824229 -0.026587347 0.014096714 -0.11418057
0.362312 0.09023166
